tflite models/cnn-lstm_nsl-kdd.tflite (tflite, 147296 bytes, 9 tensors)

sequential/conv1d/Conv1D f4 [64]
000000 00 00 00 00 00 00 00 00 00 00 00 00 00 00 00 00
       0.0 0.0 0.0 0.0
000010 00 00 00 00 00 00 00 00 00 00 00 00 00 00 00 00
       0.0 0.0 0.0 0.0
000020 00 00 00 00 00 00 00 00 00 00 00 00 00 00 00 00
       0.0 0.0 0.0 0.0
000030 00 00 00 00 00 00 00 00 00 00 00 00 00 00 00 00
       0.0 0.0 0.0 0.0
000040 00 00 00 00 00 00 00 00 00 00 00 00 00 00 00 00
       0.0 0.0 0.0 0.0
000050 00 00 00 00 00 00 00 00 00 00 00 00 00 00 00 00
       0.0 0.0 0.0 0.0
000060 00 00 00 00 00 00 00 00 00 00 00 00 00 00 00 00
       0.0 0.0 0.0 0.0
000070 00 00 00 00 00 00 00 00 00 00 00 00 00 00 00 00
       0.0 0.0 0.0 0.0
000080 00 00 00 00 00 00 00 00 00 00 00 00 00 00 00 00
       0.0 0.0 0.0 0.0
000090 00 00 00 00 00 00 00 00 00 00 00 00 00 00 00 00
       0.0 0.0 0.0 0.0
0000a0 00 00 00 00 00 00 00 00 00 00 00 00 00 00 00 00
       0.0 0.0 0.0 0.0
0000b0 00 00 00 00 00 00 00 00 00 00 00 00 00 00 00 00
       0.0 0.0 0.0 0.0
0000c0 00 00 00 00 00 00 00 00 00 00 00 00 00 00 00 00
       0.0 0.0 0.0 0.0
0000d0 00 00 00 00 00 00 00 00 00 00 00 00 00 00 00 00
       0.0 0.0 0.0 0.0
0000e0 00 00 00 00 00 00 00 00 00 00 00 00 00 00 00 00
       0.0 0.0 0.0 0.0
0000f0 00 00 00 00 00 00 00 00 00 00 00 00 00 00 00 00
       0.0 0.0 0.0 0.0

sequential/conv1d/Conv1D1 f4 [64, 1, 3, 1]
000000 bf 76 23 bf 35 df ae 3e 19 e5 03 3f 4a 9d db 3e
       -0.6385307 0.34154668 0.5152145 0.4289344
000010 a2 48 2c bf 83 af ad 3d 7d dd 82 bd 30 d8 04 bd
       -0.6729833 0.08480742 -0.06389902 -0.032432735
000020 53 61 04 be 2b 0f bb 3e 86 40 1b bf 74 03 d3 3d
       -0.12927751 0.3653501 -0.6064533 0.10303393
000030 f8 fb c9 3e bc da 30 bf ed 86 ad 3d b9 fa aa 3e
       0.3945005 -0.6908376 0.08473001 0.3339441
000040 e8 b4 fd 3e 02 8b 6d 3e e5 24 a8 3e 19 84 f6 3e
       0.49552083 0.23197559 0.32840648 0.48147658
000050 4f 75 71 3e 4b e8 70 be 8d ae 94 3d 5c 5c 28 3f
       0.23579906 -0.23526113 0.072598554 0.6576593
000060 a7 90 88 be 59 af 9c 3d be 99 32 3f db 88 cd bb
       -0.2667286 0.076506324 0.6976584 -0.006272418
000070 b2 e6 ea 3e 81 7e 79 bd 40 98 12 bc f9 b3 2a be
       0.45879132 -0.06091166 -0.008947432 -0.16670217
000080 6a a4 73 bd 70 cf bd 3e 47 09 26 bf f4 69 d0 3d
       -0.05948297 0.37072325 -0.64857906 0.10176459
000090 f0 b3 d0 bd 35 51 d2 bd 71 42 2c be a3 97 a2 bf
       -0.1019057 -0.10269395 -0.1682222 -1.2702526
0000a0 68 87 14 3f 87 34 f7 be 48 be c8 3c d6 43 06 3f
       0.58019114 -0.48282263 0.024504796 0.5244726
0000b0 a5 28 e1 bf 9a b5 e6 bd 20 f9 ca 3d 56 25 31 3f
       -1.7590529 -0.112651065 0.09910798 0.69197595
0000c0 4a dd 2d be 8c 90 71 bb 55 5f 93 bd e3 53 b5 3e
       -0.16978946 -0.0036859838 -0.071959175 0.35415563
0000d0 5c 03 22 bf 1f f2 6d 3d 9f 4f f3 3e 45 d5 a4 3d
       -0.63286376 0.058092233 0.47521684 0.080484904
0000e0 b8 81 8a bf 31 ef dc bd 05 01 b1 3d ca f7 09 3f
       -1.0820837 -0.1078781 0.086427726 0.5389372
0000f0 b8 19 6a be 3b a0 1b bf c3 3e 0b 3f 12 97 f5 bd
       -0.22861373 -0.6079137 0.5439264 -0.11991705
000100 e8 ff b0 bb 44 63 91 bd 77 f5 e3 bd ff 4a 1f be
       -0.0054016 -0.070990115 -0.11130803 -0.15555952
000110 1d ac e9 bd e4 32 ce 3e 93 79 31 bf 0a a2 b6 3d
       -0.11409781 0.402732 -0.6932613 0.08917625
000120 f6 a3 00 bf ab cc 06 3f a6 d2 04 3f 6c 0a 6d be
       -0.50250185 0.5265605 0.51883924 -0.23148507
000130 7b 80 74 3d 4c 5f 21 3f 15 cb 2b be bb 0e 4d 3d
       0.05969284 0.63036036 -0.16776688 0.050062876
000140 55 f3 1b 3f 19 6b 8c 3e a8 d9 dc be 8b 9a 99 3d
       0.6091817 0.2742546 -0.4313481 0.0750018
000150 67 a2 c8 3e 6e f1 2e bf 3f b5 d6 3d 0a b3 8c bd
       0.39186403 -0.6833714 0.10483789 -0.068700865
000160 50 cb e9 bc 30 dd 1b bd e9 f0 54 bd e4 57 26 3f
       -0.02853933 -0.038052738 -0.051987562 0.6497786
000170 f8 b9 44 be 8d 39 d0 3e 62 99 32 bf e0 3c ca 3d
       -0.19211566 0.40668908 -0.69765294 0.09874892
000180 4a 0b da 3d 05 3f 7a 3e 92 86 5e bd 60 38 ea bd
       0.106466845 0.24438103 -0.054327555 -0.11436534
000190 ac 23 1a be 42 ee c4 bd 20 cb 7a 3c 88 d6 e5 3e
       -0.1505267 -0.096157566 0.015307218 0.44890237
0001a0 90 30 b4 bf 34 b0 50 be c5 54 46 3c 69 12 1b 3f
       -1.407732 -0.20379716 0.012105172 0.60574967
0001b0 06 a7 da 3e ee b0 8d be 0c f3 47 3d 58 2e 80 3e
       0.42705554 -0.2767405 0.048815772 0.25035357
0001c0 e1 fb bf be 4c 80 72 3d d5 b8 c0 3e 9f 03 24 bf
       -0.37496856 0.059204385 0.37641016 -0.64068025
0001d0 c5 fe b8 3d e5 20 4b be e1 c1 b2 3d 85 22 ea 3e
       0.090329684 -0.19836767 0.08728386 0.4572946
0001e0 69 30 ac bd 47 bc 12 3f 71 f3 e9 bd f1 d9 c3 3e
       -0.08407671 0.5731854 -0.11423386 0.38252214
0001f0 51 eb 2b bf 6d 22 f3 3d 69 21 45 be 3f cb 34 3d
       -0.6715594 0.118718006 -0.19251026 0.044139143
000200 79 b8 37 3f c0 6d a6 bd 92 c2 2f 3f 93 03 fe bd
       0.7176586 -0.08126402 0.68656266 -0.124030255
000210 0b 8a b9 3e b8 b9 1c bf ed 2b 9d 3d fe 39 d3 3e
       0.3623813 -0.61220884 0.07674394 0.41255182
000220 24 3f 37 bf f0 63 9d 3d 5c 7c ee bd 36 1d 2b be
       -0.7158072 0.07685077 -0.116448134 -0.16710362
000230 16 0d 59 bd 7e 00 d1 3d 30 cc 22 c0 62 de 64 bc
       -0.052990995 0.10205172 -2.5437126 -0.013969036
000240 5c 0a d9 3e e7 97 e8 3e 07 c0 86 be 46 4e 86 bd
       0.42390716 0.45428392 -0.2631838 -0.06557898
000250 26 5b b8 bd a4 af 0c be 3d 4a b3 3e d2 62 1d bf
       -0.0900176 -0.13738877 0.35017577 -0.6147891
000260 0f 2a e4 3c c2 3d 69 be b2 fc c4 3c 00 64 25 3f
       0.027852086 -0.22777465 0.024046276 0.6460571
000270 41 7a e5 bf dc 35 01 3f 01 11 0f bf e1 63 c8 3e
       -1.7927934 0.5047281 -0.5588532 0.39138702
000280 a8 39 30 bf 76 28 aa 3d c6 1b 09 bf 35 0e bd 3e
       -0.68837976 0.083084986 -0.53558004 0.36924902
000290 fa 0e ff 3e 09 1f 57 3e 32 65 72 c0 62 3f 99 be
       0.49816114 0.21007933 -3.7874265 -0.2993117
0002a0 39 80 dd bd 72 c3 20 3f 2f 67 9f be 0e 86 a8 3e
       -0.10815472 0.62798226 -0.3113341 0.32914776
0002b0 80 b7 f8 3e 4e 83 af be 6c 1c cb bd a8 83 23 3f
       0.485775 -0.34279865 -0.099175304 0.63872766
0002c0 f5 e5 2a be 92 4c 9b bd 85 20 69 bd 45 27 3a 3b
       -0.16689284 -0.07582964 -0.05691578 0.0028404754
0002d0 ba 4e e4 bd ce 5a bc bd 60 b2 dc bb c7 f7 4a 3e
       -0.111478284 -0.09197007 -0.006735131 0.19821082
0002e0 4b 36 6d c0 ba 4c 8d be 8a 39 d1 3e 31 71 3b bf
       -3.7064388 -0.275976 0.4086421 -0.7321959
0002f0 32 43 b3 3d 30 6e 36 3e d9 89 88 3e c1 6f 63 bd
       0.08753051 0.1781547 0.2666767 -0.0555265

sequential/lstm/Read_2/ReadVariableOp f4 [256]
000000 34 ed 31 3e 2e d6 81 3b 6c 90 72 bd 15 d2 0d 3c
       0.17375642 0.0039623 -0.059219763 0.0086560445
000010 38 6f 31 be d0 80 79 bd e9 28 c7 be ed de 81 bd
       -0.17327583 -0.06091386 -0.388984 -0.06341348
000020 ff b0 9e be 70 d1 1f be 74 17 b5 bd 61 7c 17 be
       -0.30994412 -0.15607238 -0.08842364 -0.1479354
000030 8b e0 8f be 01 ca 2f 3b e6 56 06 3e c8 0a 45 be
       -0.28101 0.0026823285 0.13119087 -0.19242394
000040 c0 62 0c be 02 33 87 be 89 a9 d8 be d6 ff ca bb
       -0.13709545 -0.26406103 -0.42316845 -0.006195049
000050 b3 23 e2 be 24 e1 9b be 23 ab be 3d 24 e1 01 3c
       -0.4416786 -0.30445206 0.093099855 0.007927213
000060 27 73 a8 be 68 9a a6 3a 10 3f 0c be 66 46 49 bd
       -0.32900354 0.0012710812 -0.13695931 -0.049139403
000070 f6 ee 3b be 48 86 1f be 54 61 a4 be 48 9d 8a be
       -0.18352875 -0.15578568 -0.32105505 -0.2707312
000080 07 32 d1 bd 3b 8f ce be ff d9 ad 3d 7b 36 23 be
       -0.1021462 -0.4034365 0.08488845 -0.15938751
000090 c1 31 52 bd 90 55 9d 3c 1e 79 8c be 8a 71 70 3e
       -0.05131698 0.019205838 -0.27436155 0.23480812
0000a0 0d f3 f2 bd de 5b 85 3d e3 c2 c8 bd 9c 3d 89 be
       -0.118627645 0.06511663 -0.09802797 -0.26804817
0000b0 a4 35 17 3e c0 26 f8 be 6e 47 17 bf e2 d0 2a 3e
       0.14766556 -0.48467064 -0.5909337 0.16681245
0000c0 6d c2 24 be 26 e4 68 be 2a 44 9a be 18 9e 89 be
       -0.16089793 -0.22743282 -0.3013013 -0.26878428
0000d0 b5 22 81 bd 7b 05 a7 be f2 f9 d1 bd 9f 48 55 be
       -0.06305448 -0.3262137 -0.102527514 -0.20828484
0000e0 46 23 11 bf 2e 7c c9 be 10 1a ec be 19 e5 b5 bd
       -0.5669445 -0.39352554 -0.46113634 -0.088815875
0000f0 09 53 9d 3d 61 e8 a8 be 45 84 c5 be d8 a5 6a be
       0.07681853 -0.3298979 -0.38577476 -0.22914827
000100 23 82 a3 3f 0a 39 5c 3f f1 d5 9b 3f 0e 2f 96 3f
       1.277409 0.86024535 1.2174665 1.173311
000110 89 c9 90 3f 03 8d 92 3f 89 85 8f 3f 6b 7d 9c 3f
       1.1311504 1.1449283 1.1212627 1.2225775
000120 2e 16 6d 3f f3 c8 91 3f 6c 5e bb 3f f9 a3 53 3f
       0.9261197 1.138945 1.463819 0.8267208
000130 19 56 87 3f 95 6c 87 3f 99 2d b9 3f ce 87 8e 3f
       1.057315 1.0580012 1.446704 1.1135194
000140 7e 33 96 3f 1a 1c 95 3f b5 bf 4e 3f d8 78 9e 3f
       1.1734464 1.1649201 0.8076127 1.2380629
000150 7d ee 8d 3f 9c 4b 87 3f c1 fa 67 3f f1 66 3d 3f
       1.1088406 1.0569949 0.90616995 0.739852
000160 cb 86 62 3f d9 83 a9 3f a9 0a 7e 3f 72 ef 7b 3f
       0.8848693 1.3243362 0.99235016 0.9841224
000170 7f 0f 87 3f 6e 94 5c 3f 97 e1 75 3f cc c8 86 3f
       1.0551604 0.86163986 0.9604735 1.0530028
000180 6d 00 91 3f 80 37 7e 3f 8a 20 91 3f 2f d7 91 3f
       1.1328255 0.99303436 1.1338055 1.1393794
000190 6f f0 67 3f e5 fd 71 3f 2f 2a 79 3f d8 e1 88 3f
       0.9060125 0.9452804 0.9732999 1.0693922
0001a0 0e 25 84 3f e2 2b 62 3f ac 38 b4 3f 6a d8 75 3f
       1.0323808 0.8834821 1.4079795 0.96033347
0001b0 93 7a 93 3f 75 56 78 3f a9 e8 5c 3f fe 5c 1c 3f
       1.1521782 0.9700692 0.8629251 0.61079395
0001c0 d7 99 96 3f 38 4b 83 3f bc b3 59 3f ea ae 69 3f
       1.1765698 1.025733 0.8503988 0.9128252
0001d0 01 94 76 3f 1a 9f 92 3f 36 1b 9d 3f 96 cb 78 3f
       0.96319586 1.1454804 1.2273929 0.9718565
0001e0 ab 3f 33 3f 11 c8 84 3f 60 22 70 3f 29 92 8b 3f
       0.70019025 1.0373555 0.9380245 1.090398
0001f0 09 f5 88 3f ed 3b 89 3f 84 2f 6e 3f 74 dd 8c 3f
       1.0699779 1.0721413 0.93041253 1.1005082
000200 a8 12 5e 3c 26 c3 01 3e 28 ae 87 bc 69 c8 8b bd
       0.013554253 0.126721 -0.016562536 -0.068253346
000210 2d 1a 4d 3e f4 36 ba 3d 0c 35 01 3e 99 66 12 be
       0.20029517 0.09092513 0.12617892 -0.1429695
000220 b5 9d 26 be 84 ee a7 bd d2 a8 99 3c 4c 4c 82 be
       -0.16271098 -0.0819979 0.018757258 -0.25448835
000230 d6 3b 9e 3d 7d 54 cf bd 62 b7 0c 3c 12 ca 5c bd
       0.077262565 -0.10123537 0.008588644 -0.053903647
000240 67 e5 48 3e 61 ff 2c 3e e6 df 0e be 0b 60 80 bd
       0.1961876 0.16894294 -0.13952598 -0.06268319
000250 a8 db 22 3e e1 2b eb 3d 4f 74 e0 3d ce 15 56 be
       0.15904105 0.114829786 0.10959684 -0.20906755
000260 44 ac 54 3e ce 92 a0 bc 78 f8 dd 3b 12 51 19 3d
       0.20768839 -0.019601252 0.0067740045 0.03743083
000270 b7 d9 c7 bd 8d a7 9d bd d5 5b 6c 3e 2c 8e e1 bd
       -0.09758323 -0.076979734 0.23081906 -0.11013445
000280 b7 bd 85 3c c7 0c f6 bd 53 34 46 bd 14 48 cf bd
       0.016325815 -0.12014156 -0.048389744 -0.1012117
000290 f1 b1 3f be 15 7d fd 3b 78 fa 71 3e e8 f4 c2 3d
       -0.18720223 0.007735858 0.23630702 0.095193684
0002a0 05 f4 13 3e de f4 aa 3d ad 14 82 3c 54 81 64 3e
       0.14448555 0.08347486 0.015879 0.2231496
0002b0 58 8d f9 3d ce 6e 0d 3e 0f 18 56 3e c3 50 66 be
       0.12185162 0.138118 0.20907615 -0.22491746
0002c0 a7 e7 1c be a7 b2 e4 3d 1e 38 30 be 9e bc dd bc
       -0.15322743 0.11166888 -0.17208907 -0.027067479
0002d0 9f b6 fd bd b2 e9 1f 3e 33 b4 28 bc 4c 4f 49 3e
       -0.12388348 0.15616491 -0.010296869 0.19659156
0002e0 18 60 33 be 91 20 3c be 78 5b 6b 3e 3c 1e ce 3d
       -0.17517126 -0.18371798 0.22984111 0.100643605
0002f0 e4 0d 1b be 09 7a c5 3d 00 86 10 be 20 c2 3f 3c
       -0.15142018 0.09642417 -0.14113617 0.011703998
000300 e2 ff 9f 3e ec a3 8a 3e f9 99 4c 3e cd da 5d 3d
       0.3124991 0.27078187 0.19980611 0.054163743
000310 9b b0 49 3e 29 d0 2b bd b0 10 67 be 00 68 2a 3e
       0.19696276 -0.041946564 -0.2256496 0.16641235
000320 34 47 68 be ed 89 0d be bc 9f 1a be 6c 93 ab 3e
       -0.22683412 -0.13822146 -0.15099996 0.3351091
000330 4a 13 9c bd d2 91 0b be 3e a6 a6 bc 4d 10 4f 3e
       -0.076208666 -0.13629845 -0.020342942 0.20221062
000340 57 88 c0 3d 01 a1 26 be 64 5f 7e be 63 30 da 3c
       0.09401005 -0.16272356 -0.24841076 0.0266344
000350 2d 3a 40 be c9 46 91 3d 87 1c 39 be f2 e0 f4 3d
       -0.18772192 0.07093579 -0.18077289 0.119569674
000360 8c 18 22 be 86 b8 2b 3d bb 0a 8a bd 61 da af 3d
       -0.15829676 0.041924022 -0.06740328 0.08586574
000370 b5 48 5b bb 7e f6 b4 bd 48 66 2e be b0 28 b1 3d
       -0.0033460085 -0.08836077 -0.17031205 0.08650339
000380 45 9c 39 be 6b 8f 6f be e2 b7 85 3e 82 45 2b be
       -0.18126018 -0.23394553 0.26116854 -0.16725734
000390 eb 0e 91 bd 9f 53 c6 3b 26 49 22 be ea 6f 53 3e
       -0.070829235 0.006052449 -0.15848216 0.2064816
0003a0 a4 a7 11 be f6 f5 5d be 46 0b 35 3d fc ec 48 bd
       -0.14224106 -0.21675858 0.044200204 -0.04905413
0003b0 6b b3 11 3c a4 50 59 be 6f e9 20 be 95 e2 c5 3d
       0.008892874 -0.21222168 -0.15714048 0.09662358
0003c0 ec 0b 15 bd ef b8 80 be e3 52 b3 bd b1 16 57 be
       -0.036388323 -0.25141093 -0.08756044 -0.2100475
0003d0 0f e6 0e be ea db 46 be f2 67 91 bd ce db 05 be
       -0.13954948 -0.19419828 -0.07099904 -0.1307213
0003e0 d7 88 6f be d7 51 f6 bd ed 3c 57 be 6d 01 25 be
       -0.23392044 -0.120273285 -0.21019335 -0.16113825
0003f0 84 54 2e 3d e1 30 41 be ec bf cd be d0 71 ad bd
       0.04256107 -0.18866302 -0.40185487 -0.08468974

sequential/dense/BiasAdd/ReadVariableOp f4 [5]
000000 fa 13 2e be 1d 52 58 bd 1e f6 1b be bb c0 96 be
       -0.16999808 -0.052812684 -0.15230605 -0.29443917
000010 3c 3a 78 3e
       0.24240965

sequential/conv1d/BiasAdd/ReadVariableOp f4 [64]
000000 51 86 22 be ba 9d 4b bb 00 00 00 00 fe 5b e4 bb
       -0.1587155 -0.0031069354 0.0 -0.006968974
000010 a4 04 57 ba 47 14 b1 be 16 eb 96 be 37 32 03 bc
       -0.00082022906 -0.34585783 -0.2947623 -0.008007578
000020 3d a3 1c bc 5d 0e a2 bb 00 00 00 00 ce 96 27 bb
       -0.009560403 -0.00494556 0.0 -0.0025572064
000030 00 00 00 00 73 a2 b2 3c 14 81 f3 bb 69 f3 cc bb
       0.0 0.021805977 -0.007431159 -0.0062546027
000040 e3 be 1d bc b5 17 2a bc 3a 3e d2 bb f3 8f c7 bb
       -0.0096280305 -0.010381629 -0.0064161094 -0.006090158
000050 b0 dc 01 bb 4f 9b fc bb 00 00 00 00 1a 87 45 bb
       -0.0019815378 -0.007708944 0.0 -0.0030140341
000060 b9 8f 96 be c7 37 b9 bb 3b 9f 48 bc e8 54 62 3c
       -0.29406527 -0.005652401 -0.012244995 0.013814189
000070 5a 7e 8a bb 00 00 00 00 ef a8 ea bb d8 ae 62 3c
       -0.004226488 0.0 -0.0071612517 0.013835631
000080 a8 59 82 bd 00 00 00 00 5e 59 d8 bb 08 8b 79 bc
       -0.06364757 0.0 -0.0066024503 -0.015230902
000090 68 92 5c 3b a3 3c 89 bc 27 5e a3 39 8b 9a 3e bb
       0.00336566 -0.016752547 0.00031159932 -0.0029083814
0000a0 b6 78 3a bc 84 b7 01 3c 6d 72 44 bb e5 1c 34 bc
       -0.011381319 0.007917289 -0.002997543 -0.010993217
0000b0 9b c0 68 bb 02 f2 9d 3b 00 00 00 00 ae 31 b3 3b
       -0.0035515192 0.0048201093 0.0 0.0054685688
0000c0 d1 b8 b5 be 00 00 00 00 ac 30 c5 ba c3 28 c4 bb
       -0.35492566 0.0 -0.0015044413 -0.0059863045
0000d0 68 92 57 3d 21 86 39 3b ff 42 6a be b5 10 26 bd
       0.05262986 0.0028308707 -0.2287712 -0.040543277
0000e0 6b d0 f3 3b 6b 9d 87 be c5 07 b2 bc b1 3a 97 bc
       0.007440617 -0.26487288 -0.02173222 -0.018460603
0000f0 00 00 00 00 32 4b 16 bd 47 50 88 ba 10 43 82 3c
       0.0 -0.036692806 -0.0010399901 0.015901119

sequential/dense/MatMul f4 [5, 64]
000000 52 e5 76 bb 72 bf a0 3e 66 cf 48 bf d6 61 c7 3e
       -0.0037673307 0.3139606 -0.78441465 0.3894183
000010 0d ba 40 3e 13 a2 ea be 7b cd 66 be ad da 87 3f
       0.18820973 -0.45826778 -0.22539322 1.061361
000020 2f 62 b7 bf 85 25 28 bf 21 3e 4a 3e 2a 99 11 3f
       -1.4326838 -0.6568225 0.19750263 0.56874335
000030 24 85 4f be d3 8a f5 3e ac 3c 62 3e f7 fd e4 bf
       -0.20265633 0.47957477 0.22093457 -1.7890004
000040 f5 54 7d 3e 70 b4 95 3d f8 4e d9 3e 41 20 68 3d
       0.2473944 0.07309806 0.4244306 0.056671385
000050 fd a0 d2 be 63 44 4c bd c8 75 99 be 3f 7e 67 bd
       -0.4113845 -0.049869906 -0.29972672 -0.056516882
000060 43 df 66 bd b7 59 ee 3e 81 7a 6f 3e 9e 7c d2 3e
       -0.056365263 0.46552822 0.23386575 0.411107
000070 41 de 02 3f 17 51 f5 3e f2 6e 50 3e b3 ea 9a be
       0.5112038 0.4791343 0.20354822 -0.30257186
000080 c3 74 9f bf e9 b3 38 3e 44 ed f1 bc d1 ef 87 bf
       -1.2457508 0.1803738 -0.029532082 -1.0620061
000090 2d 12 42 bf f1 8d c1 3f e5 c9 67 bf 49 3d 61 bf
       -0.75808984 1.5121442 -0.9054244 -0.8798414
0000a0 a2 f1 32 bf 02 28 03 3f 33 2d 28 3d 52 8b f0 3e
       -0.6989995 0.5123292 0.04105873 0.46981293
0000b0 7a 73 54 3f b8 61 34 be 99 b6 1a bf fc 54 53 3e
       0.82988703 -0.17615402 -0.6043487 0.20637888
0000c0 23 9e 19 3f 94 4e a4 be 0d 7d 0b 3e 1c 8c a7 3e
       0.6000692 -0.320912 0.13621922 0.32724082
0000d0 76 6c 20 bf 2a 00 84 3f c5 6b 95 be 59 df 71 be
       -0.626655 1.031255 -0.29183784 -0.23620357
0000e0 04 c3 fb be 7d 53 bf 3e 6d 1b eb be d6 6d 3c 3f
       -0.49172223 0.37368384 -0.45919362 0.73605096
0000f0 4c e3 76 bf 09 e4 6a 3f da 1e 04 3f 82 c2 e0 bd
       -0.9644058 0.91754204 0.51609576 -0.109745994
000100 1f 07 09 3f 19 4a af be 4a 74 2f be ba 76 3f bf
       0.5352649 -0.3423622 -0.17134205 -0.7479054
000110 fa 51 a0 3e 1a 28 6b 3e 35 35 cb 3f c4 51 e5 be
       0.31312543 0.22964516 1.5875612 -0.44788945
000120 bc 59 92 3e 7d 41 9b 3f d7 fb b5 3e 8c 13 84 bd
       0.28584087 1.212936 0.355437 -0.06449041
000130 8c 09 bb be 16 4e 05 3f de 2a 97 bf 2d 67 07 3f
       -0.3653072 0.52072275 -1.1809957 0.5289181
000140 c1 b7 ab be 65 a8 8b 3d e3 18 4b bf 13 fe 92 be
       -0.3353863 0.06819228 -0.7933485 -0.28709468
000150 2a 08 b1 bb 70 59 ec 3d 71 bc 6c 3f 42 8c a4 bc
       -0.0054025846 0.11540496 0.9247504 -0.020086411
000160 d1 11 a4 bd 8c 46 36 bf 73 05 a4 be dd e1 5f 3f
       -0.08011211 -0.71201396 -0.32035407 0.87454015
000170 f1 d3 bc bf cc 6b 6a bf d7 8a cb be f7 52 ef 3e
       -1.4752179 -0.91570735 -0.39754364 0.46742985
000180 6a d9 e6 3c 7d b9 2f bf ba 13 70 3e 2e d6 f4 3e
       0.028179843 -0.6864241 0.23445025 0.47819656
000190 a8 10 e7 3d 20 e6 9e be 93 40 6f bf 6f 4c de 3e
       0.11282474 -0.31034946 -0.9345791 0.4341769
0001a0 3f d0 6a 3c 73 a2 9a bf 7e f7 2d 3e e5 7e 2c bd
       0.014331876 -1.2080826 0.16988942 -0.042113204
0001b0 13 33 08 3f 4d 44 98 be a2 d0 25 bf 14 bb aa 3e
       0.53202933 -0.2973961 -0.64771473 0.33345854
0001c0 a1 49 f7 3e 54 e7 1f bf 3a 34 4a 3f a6 d1 f7 3e
       0.48298362 -0.62462354 0.7898594 0.48402137
0001d0 21 25 bf 3e ed 17 3e be 15 02 08 3f bf d8 a5 be
       0.37333015 -0.18563814 0.53128177 -0.32391927
0001e0 92 8e b4 3e 2a e2 97 3e 79 b8 09 bd 6d 15 fa 3e
       0.35265023 0.29664737 -0.033623192 0.48844472
0001f0 13 a1 b4 3e d0 7f 96 be b9 94 8d bf 83 ee b1 bd
       0.3527914 -0.29394388 -1.1061012 -0.086880706
000200 66 c0 ea 3d 42 de 6d 3e 0c 4d 31 3e 68 09 ba 3e
       0.11462478 0.23229316 0.17314547 0.363353
000210 e3 69 2b 3f 20 04 1c be aa 0f 81 be 5f 55 cc be
       0.66958445 -0.15235949 -0.25207263 -0.39908883
000220 4f 2f af 3d c7 6c 29 be 47 98 7a bf 8a 25 4b 3e
       0.08553945 -0.16545402 -0.97888607 0.19838539
000230 48 8e c7 be fc 74 c9 be f9 34 2b be 57 b4 30 bf
       -0.3897574 -0.39347064 -0.16719426 -0.69025177
000240 7c b0 d7 3e 8d d9 aa be c0 8f 02 bf 26 fd da 3e
       0.42126834 -0.33369103 -0.51000595 0.42771262
000250 34 bd 09 bf f8 b1 7c be 8d cf ee 3e 58 5f 85 3f
       -0.53804326 -0.24677265 0.46642724 1.0419722
000260 c7 a9 84 3e d3 c7 11 bf 3e 95 2b 3e 89 24 43 bf
       0.2591078 -0.5694553 0.1675615 -0.76227623
000270 ca a7 3e bf b9 19 f4 bd f1 60 f3 3e 2b 88 65 3d
       -0.74474776 -0.11918969 0.47534898 0.056038063
000280 0e 6a 6f 3d 8d 45 02 bf 4c 86 d4 3e 3f 6f 9d bf
       0.05845075 -0.50887376 0.4150871 -1.2299575
000290 00 d8 11 3e 2b 8d ab be fe 5f 93 3f 01 52 86 3e
       0.14242554 -0.3350614 1.151367 0.2623444
0002a0 dc d6 11 bb c2 ab 4e bf b5 1d 4e be f0 9c f4 3e
       -0.002225331 -0.8073083 -0.2012852 0.47775984
0002b0 2b f8 dc be d8 48 91 3e ed a1 96 3f d6 9a 38 3f
       -0.43158087 0.28375888 1.1768166 0.7211126
0002c0 6e c7 59 bf aa 44 82 3f c0 36 1b bf 41 3b 92 bf
       -0.8506993 1.0177205 -0.60630417 -1.1424333
0002d0 ad d1 fb be 4a f7 0c 3f 1c b2 c1 be 8e 6c 22 3f
       -0.49183407 0.55064833 -0.378312 0.6344689
0002e0 96 09 a1 3e 21 e5 98 bf 41 ae 20 be 83 fc 39 3f
       0.31452626 -1.1944925 -0.15691473 0.7265093
0002f0 81 8c 8f bf 28 98 0c 3f 73 64 9b 3e 31 6e 37 3e
       -1.1214753 0.5491967 0.30350074 0.17913128
000300 a3 48 22 bf 81 c4 d6 bd 0e 51 eb bd 86 63 82 be
       -0.63392085 -0.10486699 -0.11490069 -0.25466555
000310 8a 3c 82 be bf fe a4 3c 84 f0 00 3f d5 12 ba 3e
       -0.25436813 0.020141004 0.50367 0.36342493
000320 8e 7b 0d bf 70 d3 b7 3e da 67 84 bf b2 55 eb be
       -0.55266654 0.35903502 -1.0344193 -0.45963818
000330 aa c5 08 3e c1 40 2c be 32 5b 81 bf 63 7a af 3b
       0.13356653 -0.16821577 -1.0105956 0.005355166
000340 bb 48 83 3f a6 56 65 3e c1 0b d2 be ae d6 9b be
       1.025657 0.22396335 -0.41024593 -0.30437225
000350 d2 a8 87 3e 89 9f f2 3e 03 5a 24 3f b6 68 1f bf
       0.26495987 0.4738734 0.64199847 -0.6226915
000360 28 86 5f bf 07 dc d2 bf ed 3d 21 3f eb 9a c9 be
       -0.8731408 -1.6473397 0.62985116 -0.39376006
000370 f3 e2 ad bf ba 75 d8 bf af 15 4c bf ae a2 0c bf
       -1.3584884 -1.6910927 -0.79720587 -0.5493573
000380 38 fd 8d 3e 65 ef 95 bd 7a 1b ed be 29 43 0a bf
       0.27732253 -0.073210515 -0.46310025 -0.5400873
000390 81 70 36 3d 69 c0 55 bd f6 be c0 3f 1b a9 fc 3e
       0.044540886 -0.05218545 1.5058277 0.49347767
0003a0 80 b7 a6 3e 51 81 c6 bf 94 9f 86 3e 80 46 75 3e
       0.32561874 -1.5508214 0.26293623 0.23952675
0003b0 da 6f 3a 3e 3b 27 5f bf 65 32 27 3f c1 73 20 bf
       0.1820673 -0.87169236 0.6531127 -0.62676626
0003c0 b8 b4 3e bf a0 79 c1 3f 34 4e 43 3d 47 9b d9 3e
       -0.74494505 1.5115242 0.047682002 0.4250128
0003d0 6d c1 34 bf 88 0c 43 3e 7a 6a e1 3e 63 68 41 3f
       -0.70607644 0.19047749 0.44026548 0.75549906
0003e0 55 cc 5e bf de 96 fa be 60 fe 2a 3f c8 7b 37 3f
       -0.87030536 -0.48943228 0.66794395 0.7167325
0003f0 41 b2 3d bf b3 be ce 3e 76 c4 1b bf 5b 2b 0e be
       -0.7410012 0.40379867 -0.6084665 -0.13883726

sequential/lstm/Read_2/ReadVariableOp1 f4 [256]
000000 34 ed 31 3e 2e d6 81 3b 6c 90 72 bd 15 d2 0d 3c
       0.17375642 0.0039623 -0.059219763 0.0086560445
000010 38 6f 31 be d0 80 79 bd e9 28 c7 be ed de 81 bd
       -0.17327583 -0.06091386 -0.388984 -0.06341348
000020 ff b0 9e be 70 d1 1f be 74 17 b5 bd 61 7c 17 be
       -0.30994412 -0.15607238 -0.08842364 -0.1479354
000030 8b e0 8f be 01 ca 2f 3b e6 56 06 3e c8 0a 45 be
       -0.28101 0.0026823285 0.13119087 -0.19242394
000040 c0 62 0c be 02 33 87 be 89 a9 d8 be d6 ff ca bb
       -0.13709545 -0.26406103 -0.42316845 -0.006195049
000050 b3 23 e2 be 24 e1 9b be 23 ab be 3d 24 e1 01 3c
       -0.4416786 -0.30445206 0.093099855 0.007927213
000060 27 73 a8 be 68 9a a6 3a 10 3f 0c be 66 46 49 bd
       -0.32900354 0.0012710812 -0.13695931 -0.049139403
000070 f6 ee 3b be 48 86 1f be 54 61 a4 be 48 9d 8a be
       -0.18352875 -0.15578568 -0.32105505 -0.2707312
000080 07 32 d1 bd 3b 8f ce be ff d9 ad 3d 7b 36 23 be
       -0.1021462 -0.4034365 0.08488845 -0.15938751
000090 c1 31 52 bd 90 55 9d 3c 1e 79 8c be 8a 71 70 3e
       -0.05131698 0.019205838 -0.27436155 0.23480812
0000a0 0d f3 f2 bd de 5b 85 3d e3 c2 c8 bd 9c 3d 89 be
       -0.118627645 0.06511663 -0.09802797 -0.26804817
0000b0 a4 35 17 3e c0 26 f8 be 6e 47 17 bf e2 d0 2a 3e
       0.14766556 -0.48467064 -0.5909337 0.16681245
0000c0 6d c2 24 be 26 e4 68 be 2a 44 9a be 18 9e 89 be
       -0.16089793 -0.22743282 -0.3013013 -0.26878428
0000d0 b5 22 81 bd 7b 05 a7 be f2 f9 d1 bd 9f 48 55 be
       -0.06305448 -0.3262137 -0.102527514 -0.20828484
0000e0 46 23 11 bf 2e 7c c9 be 10 1a ec be 19 e5 b5 bd
       -0.5669445 -0.39352554 -0.46113634 -0.088815875
0000f0 09 53 9d 3d 61 e8 a8 be 45 84 c5 be d8 a5 6a be
       0.07681853 -0.3298979 -0.38577476 -0.22914827
000100 23 82 a3 3f 0a 39 5c 3f f1 d5 9b 3f 0e 2f 96 3f
       1.277409 0.86024535 1.2174665 1.173311
000110 89 c9 90 3f 03 8d 92 3f 89 85 8f 3f 6b 7d 9c 3f
       1.1311504 1.1449283 1.1212627 1.2225775
000120 2e 16 6d 3f f3 c8 91 3f 6c 5e bb 3f f9 a3 53 3f
       0.9261197 1.138945 1.463819 0.8267208
000130 19 56 87 3f 95 6c 87 3f 99 2d b9 3f ce 87 8e 3f
       1.057315 1.0580012 1.446704 1.1135194
000140 7e 33 96 3f 1a 1c 95 3f b5 bf 4e 3f d8 78 9e 3f
       1.1734464 1.1649201 0.8076127 1.2380629
000150 7d ee 8d 3f 9c 4b 87 3f c1 fa 67 3f f1 66 3d 3f
       1.1088406 1.0569949 0.90616995 0.739852
000160 cb 86 62 3f d9 83 a9 3f a9 0a 7e 3f 72 ef 7b 3f
       0.8848693 1.3243362 0.99235016 0.9841224
000170 7f 0f 87 3f 6e 94 5c 3f 97 e1 75 3f cc c8 86 3f
       1.0551604 0.86163986 0.9604735 1.0530028
000180 6d 00 91 3f 80 37 7e 3f 8a 20 91 3f 2f d7 91 3f
       1.1328255 0.99303436 1.1338055 1.1393794
000190 6f f0 67 3f e5 fd 71 3f 2f 2a 79 3f d8 e1 88 3f
       0.9060125 0.9452804 0.9732999 1.0693922
0001a0 0e 25 84 3f e2 2b 62 3f ac 38 b4 3f 6a d8 75 3f
       1.0323808 0.8834821 1.4079795 0.96033347
0001b0 93 7a 93 3f 75 56 78 3f a9 e8 5c 3f fe 5c 1c 3f
       1.1521782 0.9700692 0.8629251 0.61079395
0001c0 d7 99 96 3f 38 4b 83 3f bc b3 59 3f ea ae 69 3f
       1.1765698 1.025733 0.8503988 0.9128252
0001d0 01 94 76 3f 1a 9f 92 3f 36 1b 9d 3f 96 cb 78 3f
       0.96319586 1.1454804 1.2273929 0.9718565
0001e0 ab 3f 33 3f 11 c8 84 3f 60 22 70 3f 29 92 8b 3f
       0.70019025 1.0373555 0.9380245 1.090398
0001f0 09 f5 88 3f ed 3b 89 3f 84 2f 6e 3f 74 dd 8c 3f
       1.0699779 1.0721413 0.93041253 1.1005082
000200 a8 12 5e 3c 26 c3 01 3e 28 ae 87 bc 69 c8 8b bd
       0.013554253 0.126721 -0.016562536 -0.068253346
000210 2d 1a 4d 3e f4 36 ba 3d 0c 35 01 3e 99 66 12 be
       0.20029517 0.09092513 0.12617892 -0.1429695
000220 b5 9d 26 be 84 ee a7 bd d2 a8 99 3c 4c 4c 82 be
       -0.16271098 -0.0819979 0.018757258 -0.25448835
000230 d6 3b 9e 3d 7d 54 cf bd 62 b7 0c 3c 12 ca 5c bd
       0.077262565 -0.10123537 0.008588644 -0.053903647
000240 67 e5 48 3e 61 ff 2c 3e e6 df 0e be 0b 60 80 bd
       0.1961876 0.16894294 -0.13952598 -0.06268319
000250 a8 db 22 3e e1 2b eb 3d 4f 74 e0 3d ce 15 56 be
       0.15904105 0.114829786 0.10959684 -0.20906755
000260 44 ac 54 3e ce 92 a0 bc 78 f8 dd 3b 12 51 19 3d
       0.20768839 -0.019601252 0.0067740045 0.03743083
000270 b7 d9 c7 bd 8d a7 9d bd d5 5b 6c 3e 2c 8e e1 bd
       -0.09758323 -0.076979734 0.23081906 -0.11013445
000280 b7 bd 85 3c c7 0c f6 bd 53 34 46 bd 14 48 cf bd
       0.016325815 -0.12014156 -0.048389744 -0.1012117
000290 f1 b1 3f be 15 7d fd 3b 78 fa 71 3e e8 f4 c2 3d
       -0.18720223 0.007735858 0.23630702 0.095193684
0002a0 05 f4 13 3e de f4 aa 3d ad 14 82 3c 54 81 64 3e
       0.14448555 0.08347486 0.015879 0.2231496
0002b0 58 8d f9 3d ce 6e 0d 3e 0f 18 56 3e c3 50 66 be
       0.12185162 0.138118 0.20907615 -0.22491746
0002c0 a7 e7 1c be a7 b2 e4 3d 1e 38 30 be 9e bc dd bc
       -0.15322743 0.11166888 -0.17208907 -0.027067479
0002d0 9f b6 fd bd b2 e9 1f 3e 33 b4 28 bc 4c 4f 49 3e
       -0.12388348 0.15616491 -0.010296869 0.19659156
0002e0 18 60 33 be 91 20 3c be 78 5b 6b 3e 3c 1e ce 3d
       -0.17517126 -0.18371798 0.22984111 0.100643605
0002f0 e4 0d 1b be 09 7a c5 3d 00 86 10 be 20 c2 3f 3c
       -0.15142018 0.09642417 -0.14113617 0.011703998
000300 e2 ff 9f 3e ec a3 8a 3e f9 99 4c 3e cd da 5d 3d
       0.3124991 0.27078187 0.19980611 0.054163743
000310 9b b0 49 3e 29 d0 2b bd b0 10 67 be 00 68 2a 3e
       0.19696276 -0.041946564 -0.2256496 0.16641235
000320 34 47 68 be ed 89 0d be bc 9f 1a be 6c 93 ab 3e
       -0.22683412 -0.13822146 -0.15099996 0.3351091
000330 4a 13 9c bd d2 91 0b be 3e a6 a6 bc 4d 10 4f 3e
       -0.076208666 -0.13629845 -0.020342942 0.20221062
000340 57 88 c0 3d 01 a1 26 be 64 5f 7e be 63 30 da 3c
       0.09401005 -0.16272356 -0.24841076 0.0266344
000350 2d 3a 40 be c9 46 91 3d 87 1c 39 be f2 e0 f4 3d
       -0.18772192 0.07093579 -0.18077289 0.119569674
000360 8c 18 22 be 86 b8 2b 3d bb 0a 8a bd 61 da af 3d
       -0.15829676 0.041924022 -0.06740328 0.08586574
000370 b5 48 5b bb 7e f6 b4 bd 48 66 2e be b0 28 b1 3d
       -0.0033460085 -0.08836077 -0.17031205 0.08650339
000380 45 9c 39 be 6b 8f 6f be e2 b7 85 3e 82 45 2b be
       -0.18126018 -0.23394553 0.26116854 -0.16725734
000390 eb 0e 91 bd 9f 53 c6 3b 26 49 22 be ea 6f 53 3e
       -0.070829235 0.006052449 -0.15848216 0.2064816
0003a0 a4 a7 11 be f6 f5 5d be 46 0b 35 3d fc ec 48 bd
       -0.14224106 -0.21675858 0.044200204 -0.04905413
0003b0 6b b3 11 3c a4 50 59 be 6f e9 20 be 95 e2 c5 3d
       0.008892874 -0.21222168 -0.15714048 0.09662358
0003c0 ec 0b 15 bd ef b8 80 be e3 52 b3 bd b1 16 57 be
       -0.036388323 -0.25141093 -0.08756044 -0.2100475
0003d0 0f e6 0e be ea db 46 be f2 67 91 bd ce db 05 be
       -0.13954948 -0.19419828 -0.07099904 -0.1307213
0003e0 d7 88 6f be d7 51 f6 bd ed 3c 57 be 6d 01 25 be
       -0.23392044 -0.120273285 -0.21019335 -0.16113825
0003f0 84 54 2e 3d e1 30 41 be ec bf cd be d0 71 ad bd
       0.04256107 -0.18866302 -0.40185487 -0.08468974

while/MatMul_11 f4 [256, 64]
000000 6a 87 4a 3e a5 e8 e5 bc b9 3e 5a 3e 75 ab 3a 3e
       0.19778219 -0.028065035 0.2131299 0.18229468
000010 ca b7 4d be 02 c2 0b 3e 26 a0 c3 be df 93 78 bd
       -0.20089641 0.13648227 -0.3820812 -0.060687896
000020 07 b0 06 3d 69 ec 02 bf f1 f3 d0 3d 4d 7c 4d 3e
       0.032882717 -0.51141983 0.10202778 0.20066948
000030 18 c3 a1 bd 2f cb 64 be ac 7e 4e 3e 88 e8 a8 3c
       -0.07898539 -0.22343133 0.20165509 0.020618692
000040 d2 bc 2e 3e da a4 d3 be 38 fa 84 3e 4a e0 b0 3d
       0.17064217 -0.4133671 0.25972152 0.0863653
000050 d8 2b be be 4c f8 34 be a2 b3 57 be 92 8c 3f 3c
       -0.37142825 -0.17672843 -0.21064618 0.011691229
000060 92 c7 80 be 46 79 ef 3e 0b 66 99 bc 75 a4 60 3e
       -0.2515226 0.46772212 -0.018725416 0.21937735
000070 ea 96 a1 3e 19 bb 2a be 4a 35 c2 be a6 1e 3c 3e
       0.3156045 -0.16672935 -0.3793128 0.18371066
000080 69 9a ed 3d ef 11 7d 3d de fe a2 3e 88 f1 94 3e
       0.11601717 0.06178468 0.31835073 0.29090524
000090 c5 c6 82 bd a9 60 4f 3e 3e c3 38 3e 01 7b 39 3d
       -0.063855685 0.20251717 0.18043229 0.04528332
0000a0 e7 07 00 3d f4 ac 77 3e 97 2b 93 3e c9 b1 9a 3c
       0.031257536 0.2418707 0.28744194 0.018883603
0000b0 93 96 70 bc 8b 65 3a 3e 92 c1 fe bc 8f 5a 11 3e
       -0.014684337 0.18202798 -0.03109816 0.14194702
0000c0 1b 06 9d 3e 15 29 1c 3e fa c6 80 3e a6 0c c6 3e
       0.3066872 0.15250047 0.25151807 0.38681525
0000d0 6a 29 c7 bd 51 2f 96 3d 25 13 ca bd 88 f2 69 3e
       -0.09724696 0.07333244 -0.09866933 0.22846425
0000e0 5c 6c 91 3e 10 40 10 3f 4b e0 1b bd 9a 3c 2a bc
       0.28402984 0.5634775 -0.0380557 -0.010390425
0000f0 00 0e 1c 3e 99 04 a1 3e c9 38 9e 3e 89 e3 7b 3e
       0.15239716 0.3144882 0.309027 0.24598517
000100 16 f9 ab bc b5 25 2f bf 2f b1 d1 be ca 75 ff 3e
       -0.020992797 -0.6841691 -0.40955493 0.49894553
000110 cb fa 39 bf 04 ff 8f be d6 bb 9a 3c 1c 47 88 3d
       -0.72648305 -0.2812425 0.018888395 0.06654188
000120 36 21 06 3f 20 ea ea 3d 7c ab f1 3d 2f db cc 3d
       0.52394426 0.11470437 0.11800286 0.100027435
000130 b6 fd 7d be 46 b7 4c be 06 68 d0 3e 3e ad 4f be
       -0.24803814 -0.19991788 0.40704364 -0.2028093
000140 fc da eb be 02 69 cf be 8d a6 1a 3e af ce a2 bd
       -0.4606551 -0.40509802 0.15102597 -0.07949578
000150 0f 92 8d bd eb f7 c8 be cc 07 82 be 41 45 2c 3f
       -0.06912624 -0.39251646 -0.25396574 0.67293173
000160 2a 6a c7 be 4e 0a f4 3d 0c e1 a2 be 58 47 a7 3e
       -0.38948184 0.11916028 -0.31812322 0.32671618
000170 27 d7 1b 3f 57 55 94 be ea 6e 1c bf a5 23 63 3e
       0.6087517 -0.2897136 -0.6110674 0.22181566
000180 49 1f e6 3e ea c5 58 3e 38 b4 42 3e 7b af 02 3f
       0.44945744 0.21169248 0.1901406 0.5104901
000190 43 97 83 3e e8 3f cb 3d 82 e2 9b be 91 7c ef be
       0.2570134 0.099242985 -0.3044625 -0.46774724
0001a0 68 64 02 bf 85 ba 70 3e 19 67 cf 3d 9f 34 1e bf
       -0.5093446 0.23508652 0.10127086 -0.61799043
0001b0 c2 ce d2 be 7f 0a 8c be 6c dd 0f be 4f b8 78 3f
       -0.4117337 -0.27351758 -0.1404931 0.9715623
0001c0 f7 6a 75 3e cf 25 c3 3e 8a af 2d be 5d a0 1f 3e
       0.23966585 0.38114783 -0.16961494 0.15588517
0001d0 d8 a8 5a 3e 9f 55 5f bd ec c9 da bd 8d 27 e6 be
       0.21353471 -0.054525014 -0.10683045 -0.4495205
0001e0 b1 8d 16 3f 83 cc 1c 3d 05 0c 67 be d5 78 00 bf
       0.58809954 0.038280975 -0.22563179 -0.50184375
0001f0 16 4c 54 3e 79 6c 1a be b1 70 37 be 0b f6 23 bc
       0.2073215 -0.15080442 -0.17914082 -0.010007392
000200 13 a3 6d be 4e 63 1a 3e 09 4f 90 be e8 19 aa bd
       -0.23206739 0.15076944 -0.281853 -0.083057225
000210 bf 89 9f 3d 26 32 35 bf 9b 65 0f bf 9c f5 89 3e
       0.07789945 -0.70779645 -0.5601441 0.26945198
000220 6c dc 8a be 79 62 08 bf 34 c9 a7 bd e5 4a 6a 3e
       -0.27121294 -0.5327526 -0.08192673 0.22880132
000230 22 67 f3 bd 9c aa a2 3e 5a a1 91 3d 58 71 ce be
       -0.118849054 0.3177079 0.071108535 -0.4032085
000240 45 e9 87 be 9b c4 37 3d 86 7f 15 3e c7 2b bc 3d
       -0.26545158 0.044865232 0.14599428 0.09188037
000250 93 7c 32 bd 58 d5 2d bf 7c 13 bc be 50 77 05 ba
       -0.043575834 -0.6790366 -0.36733615 -0.00050913263
000260 9f e8 eb be 41 fd b5 3e d0 10 d1 3e ac 05 23 3e
       -0.46075913 0.3554478 0.4083314 0.15920132
000270 09 36 d4 3c 5d 33 65 3e c6 2c 5f be 79 70 54 be
       0.025904672 0.22382875 -0.21794423 -0.2074603
000280 21 b6 b8 bd 5e ee 30 3e fc a9 33 3e 6b ee ff bd
       -0.09019113 0.1727843 0.17545313 -0.124966465
000290 8c 1f 15 be 81 c0 c3 3e e7 26 42 be 8b d2 c8 3c
       -0.14562815 0.38232806 -0.18960153 0.024514457
0002a0 79 06 bf bd 04 10 78 bd a0 e1 99 be 54 a4 8e bd
       -0.093274064 -0.06056215 -0.3005495 -0.06964937
0002b0 eb 21 a5 bd 1b 76 53 bf a4 bb c5 be 6f 74 8a 3e
       -0.0806311 -0.8260209 -0.3861972 0.27041957
0002c0 95 15 79 3d 6d ab 1a bf b7 7a 60 3e 64 48 8d bd
       0.060811598 -0.60417825 0.21921812 -0.06898573
0002d0 01 5d 78 be ca 5d 2e 3d c9 60 49 be c5 3c 9d be
       -0.24254228 0.042569913 -0.19665827 -0.30710426
0002e0 4c f7 ee 3d 4a 60 da 3e c0 32 c5 be 92 46 8f 3d
       0.11668262 0.42651588 -0.38515282 0.06995882
0002f0 2d 89 a4 be ec 26 c6 3e a3 06 d6 3e 30 b6 3e bd
       -0.32135907 0.3870157 0.41801938 -0.046560466
000300 c1 c8 b7 3c b8 31 08 3b 91 1c 01 3e 6d 14 ca be
       0.022434594 0.0020781588 0.12608553 -0.3946871
000310 e9 f0 34 3e 5f dd 1f 3e 0d 02 2a bf be 3b 88 3c
       0.17670025 0.1561179 -0.6640938 0.01663005
000320 33 47 f6 3e 61 db ef bd fd ba 26 be 2d ff 21 3d
       0.48101196 -0.11711765 -0.16282268 0.039549995
000330 d2 4e 99 be 2d b3 ae 3e 2e 23 1b be 01 b8 84 3e
       -0.29942948 0.34121075 -0.15150139 0.25921634
000340 cf 00 4f be c2 16 99 be f1 87 1e 3f 4a 54 60 be
       -0.20215152 -0.29900175 0.6192618 -0.21907154
000350 c2 a9 74 be d9 06 8c be 7e 76 67 be 8c 4a 1e 3e
       -0.23892882 -0.27348974 -0.22603795 0.15458125
000360 04 51 0f bf e0 87 2c 3e 37 79 1a be 5d 22 11 3f
       -0.55982995 0.16848707 -0.15085302 0.5669306
000370 18 ee f2 3e a6 98 a0 3e f1 97 1e bf 6f 23 98 3e
       0.47447276 0.31366462 -0.61950594 0.29714534
000380 d7 13 34 3e 6a 19 27 3f 76 d4 1e 3e 7f ca 00 3f
       0.17585693 0.65273154 0.15510735 0.50308985
000390 51 96 0f bd ad 04 fa bd 62 a5 72 be e7 a0 3a 3d
       -0.035055462 -0.12207923 -0.23695901 0.045563605
0003a0 d3 17 83 bd d0 0a b0 be 0e e4 8b 3d ee 57 47 bf
       -0.064010285 -0.3438325 0.06830607 -0.77868545
0003b0 0a c9 d8 bd a4 0e 1e bf 4b a2 4a be d8 63 bb 3c
       -0.1058522 -0.6174109 -0.19788472 0.022874758
0003c0 de b6 6e 3f e6 3b d0 be 23 00 48 3f 41 68 92 bd
       0.93247783 -0.406707 0.7812521 -0.07148791
0003d0 c4 d1 b9 3d 36 02 2b bf 60 7a b7 be 3b 8d 6b be
       0.09073213 -0.6680025 -0.35835552 -0.23003094
0003e0 10 e6 d6 3e 30 e4 59 3f b9 ec 3a bf 70 b9 cc be
       0.419724 0.8511381 -0.7301746 -0.39985228
0003f0 0c 45 44 3e 8f c2 ce be 28 c1 18 3e 48 42 f8 3b
       0.19166964 -0.4038281 0.14917433 0.0075762607

while/MatMul f4 [256, 64]
000000 86 93 8d be 9e 15 6c 3e 74 a5 e5 bc 56 eb 2a 3e
       -0.27651614 0.23055121 -0.028032996 0.16691336
000010 f8 f3 81 3e b9 9f ee 3e 93 4c 92 3e a5 4b 07 be
       0.25381446 0.46606234 0.28574046 -0.1321245
000020 fc d3 7e be 25 ba 6f 3e 80 f2 63 3c d5 55 09 3f
       -0.24885553 0.23410852 0.013912797 0.53646594
000030 e2 e7 8c 3d 54 f3 78 be ab 0f e6 bd b9 73 be bd
       0.06880166 -0.24311572 -0.11233457 -0.09299416
000040 e9 4c c2 bd 1d fc 98 3d f4 62 ed bd d5 76 83 be
       -0.09487326 0.07469962 -0.115911394 -0.256766
000050 8b e7 24 be 3c 06 ae 3d 04 d3 62 3d b8 e0 8c 3e
       -0.16103952 0.08497283 0.05537702 0.27515197
000060 60 6a 31 be b3 f9 7a be 39 49 ac be bf 28 da 3e
       -0.17325735 -0.24509315 -0.33649614 0.42609212
000070 09 7c 93 3e 3c 79 47 3d 37 51 8f 3e 15 a4 93 3e
       0.2880557 0.048699602 0.2799165 0.28836122
000080 1c 04 79 3d 30 18 47 3c 86 f4 8c be 4d 9b 4c be
       0.060794935 0.012151763 -0.27530307 -0.19981118
000090 67 66 af 3e f8 c4 83 3e 3f 8b 1a 3e 71 16 cd 3d
       0.34257814 0.25736213 0.1509218 0.10014046
0000a0 65 75 92 3e c9 08 92 3e 6b 45 a9 be 7f f4 ee 3c
       0.2860519 0.28522328 -0.33060774 0.02916932
0000b0 dd f8 53 3e ec d4 9a 3e 7a 4f 06 3e 99 b5 3d bc
       0.20700403 0.30240571 0.13116255 -0.011578941
0000c0 b3 85 b5 bb 04 ce 06 3d 4a b5 58 3e 1a 45 93 be
       -0.00553962 0.032911316 0.21162906 -0.28763658
0000d0 9c 66 02 3e 8e c7 48 3e ae 19 14 be 76 6a 9d bc
       0.12734455 0.19607374 -0.14462921 -0.019215804
0000e0 12 2b 1a 3e 39 54 a6 3e 22 c3 1e 3e 02 ac 76 bd
       0.15055493 0.32486132 0.15504125 -0.060222633
0000f0 10 12 07 3d 62 53 36 be 5b 3f 10 3e c9 ba c6 3e
       0.03297621 -0.17805246 0.14086668 0.3881438
000100 c8 5a c0 3d fd 69 51 be c0 06 0c 3b 4c 4c d0 3d
       0.09392315 -0.20450588 0.0021366328 0.101708025
000110 cf 52 60 be 7b c0 3f bd 27 7b 94 3c 2a 8d 45 3d
       -0.21906589 -0.046814423 0.01812513 0.048230328
000120 45 a6 ed bc f2 8a 7b bd b6 e8 89 3d 95 2a d5 bd
       -0.029009948 -0.061411805 0.06733839 -0.104085125
000130 80 39 f0 3b 83 0d 87 3e 03 41 07 3e f0 c4 d8 3b
       0.0073310733 0.26377496 0.13208394 0.0066152737
000140 ab 55 c8 bd 78 08 49 be 3d 36 be 3e 42 87 ed bd
       -0.09781965 -0.19632137 0.37150756 -0.11598064
000150 97 37 19 3e 70 4a e1 bd 68 da c5 bd e2 7b 57 be
       0.14962612 -0.11000526 -0.09660798 -0.21043351
000160 c6 02 91 bd 00 54 e2 3d 59 b8 08 3e 0e 25 7f 3d
       -0.07080607 0.11051178 0.13351573 0.062291197
000170 da 1b c9 3d 86 48 ef bd bf b2 bd bd 3e b0 a0 bd
       0.098197654 -0.116837546 -0.09262609 -0.078461155
000180 e0 15 f5 3d 30 68 06 be c6 5a 97 3e 16 76 c4 3d
       0.11967063 -0.13125682 0.29561442 0.095928356
000190 0d 78 25 3d a4 0d 01 be 6e ed 3e 3d 8b ee 98 3c
       0.040397692 -0.1260286 0.04661315 0.018668434
0001a0 9a f5 32 bd 70 29 0f be b0 b2 21 be e8 fc 19 bd
       -0.043691255 -0.13980651 -0.1579082 -0.037594706
0001b0 ca 36 de bd 0e dc 6b be ce e4 9c 3d 49 85 05 bf
       -0.10850294 -0.23033163 0.076608285 -0.521565
0001c0 47 2f 96 3e ce 4e b0 bd a6 86 8a be 74 42 19 3e
       0.29332945 -0.08608781 -0.27055854 0.14966756
0001d0 e8 4c 07 3f 7d 6e 17 bc 28 1e 4f 3d 8a 8b 41 bf
       0.52851725 -0.009242651 0.05056587 -0.75603545
0001e0 92 d6 7e 3c 88 d6 20 3e d6 c3 60 bc e2 7e 8a 3d
       0.015554087 0.15706837 -0.013718566 0.06762482
0001f0 00 f6 72 3d 02 56 26 bf ce 67 85 bd e0 16 95 3d
       0.059316635 -0.6497499 -0.0651394 0.07279754
000200 6b 20 b3 3d 41 43 97 3e 82 c7 ae 3d 85 48 99 3e
       0.087464176 0.29543498 0.08534147 0.2993814
000210 35 ad d3 3d a9 d2 8f 3e a9 a2 87 3d de d2 dc 3a
       0.10335771 0.28090408 0.06622822 0.0016847511
000220 44 23 0d 3d 11 d6 c7 3d 04 a4 a7 bd 84 06 b5 3e
       0.03445746 0.09757627 -0.081855804 0.35356534
000230 a0 96 04 be 0f 7c 04 bf 8e d5 1f be 98 83 84 bc
       -0.12948084 -0.517518 -0.15608808 -0.01617603
000240 ee 64 27 bc cf bb b7 3e 04 5f a9 be d1 bc 58 3d
       -0.010216935 0.35885474 -0.33080304 0.052914444
000250 83 b3 76 3e f0 84 4a bd f0 b2 d7 3c d6 c3 37 3e
       0.24091916 -0.049443185 0.026330441 0.17945799
000260 16 1a eb 3d e5 bb a4 bd 01 13 8a 3d 23 86 bb bd
       0.11479585 -0.080436505 0.06741906 -0.09156444
000270 10 71 c9 3e da 72 07 be 15 bc c0 bc 6f 1e 89 3e
       0.39344072 -0.13227406 -0.023527185 0.2678103
000280 1a 0a 12 3d d4 8d 13 bd 94 7f 87 be 25 37 08 bd
       0.035654165 -0.03602393 -0.26464522 -0.033255715
000290 f5 04 a3 be 5e 16 27 be e0 5b 14 3f 8d 8e f5 3d
       -0.3183972 -0.16317126 0.5795269 0.1199008
0002a0 96 2e 43 3d 36 c9 b9 3e a5 90 bc bc 9c 77 a6 3d
       0.04765185 0.36286324 -0.02301819 0.081282824
0002b0 b4 dd 98 3e 1c f1 ba 3e 02 5f 09 3e e9 b0 2e 3f
       0.29856646 0.36512077 0.13415149 0.68238693
0002c0 88 fe 0c be 9c 2c 88 bd e3 3f 6c 3e 78 3a 8f 3d
       -0.13768971 -0.066491336 0.23071246 0.06993574
0002d0 02 7b 39 be 39 c7 a4 3e 3a 12 43 3e a1 0c 0f 3e
       -0.1811333 0.32183245 0.19049922 0.13969661
0002e0 d2 72 d6 3c de f4 0e bf 1f af 6b 3e c2 5e 0e 3e
       0.026177797 -0.5584239 0.23016022 0.13903335
0002f0 4c 37 7b 3d b8 54 30 3e 79 62 46 3d df 7a aa 3d
       0.061332032 0.17219818 0.048433755 0.08324217
000300 62 2c d7 3d 30 b2 b9 3d 98 dd 56 3d bd 38 38 3e
       0.10506512 0.0906719 0.052457422 0.17990394
000310 36 8c d3 3d c0 cb 8d be 37 c2 51 be 2e 17 2c be
       0.103294775 -0.2769451 -0.20484243 -0.16805717
000320 b0 a0 e2 bc ae 5b 7e bd 50 99 be bc fa 52 9c 3d
       -0.027664512 -0.06209915 -0.023266464 0.07633014
000330 fc 5a db bd 79 c6 1e be 5a 40 5f 3d d8 09 9f be
       -0.10710713 -0.15505399 0.05450473 -0.31062198
000340 3f 40 57 bd 41 ac a5 bb a6 f8 ac bc 57 53 c1 be
       -0.052551504 -0.0050559347 -0.021114659 -0.37758896
000350 54 25 a4 3e f6 96 67 3d 44 0c c9 bc 87 7c 24 3e
       0.3205973 0.056540452 -0.024541982 0.16063128
000360 37 7d 9b 3d a4 2f 5c be 2b 1a 8f be 6e 2a 8e bd
       0.07592242 -0.21502548 -0.27949652 -0.069416866
000370 ad c3 2c 3e c8 a7 d4 3c 70 23 6c bd 20 54 88 3e
       0.1687152 0.02595891 -0.057650983 0.26626682
000380 cd bb bc bd 1b 58 00 be 38 7b d9 3c f8 56 01 3e
       -0.09215508 -0.1253361 0.026548013 0.12630832
000390 66 96 f8 3d 5c 9a 5e 3e c0 c0 4f 3e 18 d9 2a 3e
       0.12138061 0.21738571 0.20288372 0.16684377
0003a0 82 c4 7f be a5 52 8e 3e d4 33 97 be 46 23 84 3d
       -0.24977306 0.27797428 -0.2953173 0.064520404
0003b0 7e 6f 74 3e 2d f1 9a 3e a6 50 46 bd 82 ce 7c 3f
       0.23870656 0.30262128 -0.048416756 0.98752606
0003c0 eb d7 aa be 21 1a 05 be c1 ec 6b 3e 49 5c b2 bd
       -0.33367857 -0.12998249 0.23039533 -0.08709008
0003d0 2d d8 58 3e b3 ed 9e 3e 25 04 61 be 26 e1 c3 3f
       0.21176215 0.31040725 -0.21974237 1.5303085
0003e0 6c e7 58 bc ce 8f 2c be b8 bc f6 3c 1f a0 b0 bc
       -0.013238769 -0.16851732 0.030119285 -0.021560727
0003f0 92 10 c7 bd f4 ca b2 3f 34 c4 48 3d 16 91 dc 3d
       -0.097199574 1.3968186 0.04901524 0.107698604
