tflite models/gru_creditcard_model.tflite (tflite, 42868 bytes, 5 tensors)

sequential/dense/MatMul f4 [1, 50]
0	0xbe0578fd	-0.13034435
1	0x3d9b726b	0.07590183
2	0xbcc4c04a	-0.024017472
3	0xbc995b6e	-0.018720355
4	0x3e41a9b8	0.18912399
5	0x3e5894ea	0.21150556
6	0x3e1e389c	0.15451282
7	0xbe0c8f3e	-0.13726518
8	0x3d797146	0.06089904
9	0xbcb8918f	-0.022530345
10	0xbe628f1a	-0.22124901
11	0xbd2ef928	-0.042718083
12	0xbd3cc6da	-0.046088077
13	0xbc8b6b82	-0.017019037
14	0x3e1fb6db	0.15597098
15	0xbe8b5ebf	-0.27220723
16	0xbcac1bb1	-0.021009298
17	0xbd5045a8	-0.05084768
18	0x3e7c2507	0.246235
19	0x3907cb5c	0.0001295036
20	0x3da06ab6	0.078328535
21	0x3d845289	0.06461055
22	0x3e8195b1	0.25309518
23	0x3c661781	0.01404369
24	0xbd28bd0e	-0.04119592
25	0x3e84135d	0.25796023
26	0xbcfa1589	-0.030527847
27	0x3dc4c7e3	0.09608438
28	0x3c8ee46d	0.017442906
29	0xbc825b48	-0.015912667
30	0xbe1fe231	-0.15613629
31	0xbea77438	-0.32705855
32	0xbe586ce6	-0.21135291
33	0xbc42ff36	-0.011901667
34	0x3e28dc3f	0.16490267
35	0xbc68a6f5	-0.014199962
36	0xbe0fcd89	-0.14043249
37	0x3d04e57b	0.032445412
38	0xbe1192a5	-0.14216097
39	0x3e66af3c	0.22527784
40	0xbd8ed6ac	-0.06974539
41	0x3eb1df37	0.34740612
42	0xbcfc10e7	-0.030769778
43	0x3df666e7	0.12031346
44	0xbda26a29	-0.07930405
45	0xbe3e1ab5	-0.18564875
46	0x3ccb5524	0.024820872
47	0x3ca1cdc5	0.019751439
48	0x3e290b1c	0.16508144
49	0xbcea43ca	-0.028596777

sequential/gru/while/gru_cell/unstack f4 [150]
0	0x3e96eb32	0.29476315
1	0x3e91046a	0.2832368
2	0x3e847981	0.2587395
3	0xbea5def9	-0.32396677
4	0x3d55d5c1	0.052205805
5	0xbde41977	-0.111376695
6	0x3d148f04	0.036269203
7	0x3c9e1067	0.01929493
8	0xbd9db7fe	-0.07701109
9	0x3ceaf8d9	0.028683113
10	0x3d9fa0f4	0.07794371
11	0x3e5ef2d3	0.21772318
12	0x3d12bd37	0.03582498
13	0x3d013bf7	0.031551328
14	0xbda949b0	-0.08266008
15	0x3c116f54	0.00887664
16	0xbe19e97c	-0.15030473
17	0xbe46d320	-0.19416475
18	0xbd7bdeea	-0.061491884
19	0x3e007cc3	0.12547593
20	0x3e75c64a	0.24001423
21	0xbdf9a307	-0.12189298
22	0x3ec973e6	0.39346236
23	0x3e11300d	0.14178486
24	0x3e33bcba	0.17552462
25	0x3dc7dd7b	0.09759041
26	0xbe19cd27	-0.15019666
27	0xbecb249a	-0.39676362
28	0x3e4e7a41	0.20163824
29	0xbe0c273e	-0.13686845
30	0xbe9b885c	-0.3037747
31	0xbd89730c	-0.067113966
32	0x3e0653f4	0.13117963
33	0x3eab9d3a	0.33518392
34	0xbd2d4b7d	-0.04230832
35	0x3ddf8ef3	0.10915937
36	0x3e24a334	0.16077882
37	0x3ea1fda9	0.3163884
38	0x3d890926	0.06691198
39	0xbc969132	-0.018379781
40	0xbe359082	-0.17730907
41	0xbe5d2a0c	-0.21598071
42	0xbe0cdaa5	-0.13755281
43	0x3ea8b6d7	0.32951996
44	0x3d8ac1f9	0.067752786
45	0x3d89339c	0.06699297
46	0x3e8f1207	0.2794344
47	0xbdea2e78	-0.114346445
48	0x3b81477c	0.003945289
49	0x3eb0c6cb	0.34526667
50	0x3e560375	0.20899756
51	0x3b93fc62	0.0045161704
52	0x3e4da19f	0.20081185
53	0x3df4d942	0.11955501
54	0x3d561315	0.05226429
55	0x3e9691ee	0.2940821
56	0x3e65af75	0.22430213
57	0xbe1c8eb2	-0.15288809
58	0x3d136bcf	0.035991486
59	0xbd0baf2d	-0.034102608
60	0xbd1fff67	-0.03906193
61	0x3e12e841	0.1434641
62	0x3d232520	0.039830327
63	0x3e606252	0.21912506
64	0x3e8a4b8b	0.2701076
65	0xbd84066d	-0.06446538
66	0x3da14a69	0.07875521
67	0x3e70f0eb	0.23529403
68	0x3e92b419	0.2865303
69	0x3ef5bc8e	0.47995418
70	0x3ec2d1d4	0.3805071
71	0xbdeb2f3a	-0.11483617
72	0x3e46e9af	0.1942508
73	0xbdace10f	-0.08441364
74	0x3da5631d	0.08075545
75	0x3ed2e564	0.41190636
76	0x3c094fe2	0.008380862
77	0x3e38eaf5	0.18058379
78	0x3e55faa8	0.20896399
79	0x3d2e7536	0.04259225
80	0xbe4e3577	-0.20137583
81	0xbc4c95b2	-0.012486862
82	0xbd806615	-0.062694706
83	0x3e274044	0.16333109
84	0xbde771f1	-0.113010295
85	0x3b0fc271	0.0021935964
86	0x3e1e596d	0.154638
87	0x3da7a034	0.08184853
88	0xbde38e28	-0.111110985
89	0x3e76108d	0.24029751
90	0x3d6dc9a1	0.058053616
91	0x3e79dde5	0.24401052
92	0xbd133afc	-0.035944924
93	0x3ebd386f	0.36957118
94	0x3d0dc7a1	0.03461421
95	0x3d74cd98	0.059766382
96	0x3e6f2ba6	0.23356494
97	0x3efa8e52	0.48936707
98	0x3df237a3	0.11827018
99	0x3ccc4345	0.02493442
100	0xbd803846	-0.06260733
101	0xbe3291d3	-0.1743844
102	0xbeb0a78e	-0.34502834
103	0xbe75615e	-0.23962924
104	0xbe95a5bd	-0.2922801
105	0xbe197151	-0.14984633
106	0xbe5839d0	-0.21115804
107	0xbe4f4035	-0.20239337
108	0xbcffa3c1	-0.031206014
109	0xbd3fe6f2	-0.046851106
110	0xbe353af0	-0.17698264
111	0xbeae5e4b	-0.34056315
112	0xbe803b5c	-0.25045288
113	0xbddb99c6	-0.10722689
114	0xbdb96793	-0.09052958
115	0xbe39e571	-0.18153931
116	0xbee5ed4e	-0.44907612
117	0xbf5a1ad2	-0.85197175
118	0xbe4e2643	-0.20131783
119	0x3df25661	0.11832882
120	0xbe9c1b30	-0.30489492
121	0xbe04bc4a	-0.12962452
122	0xbecb97b0	-0.39764166
123	0xbe904cd5	-0.28183618
124	0xbde6ae89	-0.11263759
125	0xbd8fffae	-0.07031189
126	0xbe7ccc1b	-0.24687235
127	0xbe96888c	-0.29401052
128	0xbdeef4f2	-0.11667813
129	0xbeaf961e	-0.34294218
130	0xbeb66c0e	-0.35629314
131	0xbe20f57f	-0.1571865
132	0xbeace11a	-0.3376549
133	0xbd97dcf2	-0.07415189
134	0xbe8769a2	-0.2644778
135	0xbe0740b3	-0.13208275
136	0xbee1bc8d	-0.44089165
137	0xbe17f747	-0.14840423
138	0xbe8deedb	-0.27721295
139	0xbe6baf8f	-0.23016189
140	0xbeaf62b7	-0.34255
141	0xbe2d88d9	-0.16946734
142	0xbe5d2197	-0.21594845
143	0xbe013e87	-0.12621509
144	0xbe3eeed8	-0.18645799
145	0xbe7c9970	-0.24667907
146	0xbe30236d	-0.17201014
147	0xbd98d116	-0.07461755
148	0xbdff463f	-0.1246457
149	0xbdf495da	-0.119426444

sequential/gru/while/gru_cell/unstack1 f4 [150]
0	0x3e96eb32	0.29476315
1	0x3e91046a	0.2832368
2	0x3e847981	0.2587395
3	0xbea5def9	-0.32396677
4	0x3d55d5c1	0.052205805
5	0xbde41977	-0.111376695
6	0x3d148f04	0.036269203
7	0x3c9e1067	0.01929493
8	0xbd9db7fe	-0.07701109
9	0x3ceaf8d9	0.028683113
10	0x3d9fa0f4	0.07794371
11	0x3e5ef2d3	0.21772318
12	0x3d12bd37	0.03582498
13	0x3d013bf7	0.031551328
14	0xbda949b0	-0.08266008
15	0x3c116f54	0.00887664
16	0xbe19e97c	-0.15030473
17	0xbe46d320	-0.19416475
18	0xbd7bdeea	-0.061491884
19	0x3e007cc3	0.12547593
20	0x3e75c64a	0.24001423
21	0xbdf9a307	-0.12189298
22	0x3ec973e6	0.39346236
23	0x3e11300d	0.14178486
24	0x3e33bcba	0.17552462
25	0x3dc7dd7b	0.09759041
26	0xbe19cd27	-0.15019666
27	0xbecb249a	-0.39676362
28	0x3e4e7a41	0.20163824
29	0xbe0c273e	-0.13686845
30	0xbe9b885c	-0.3037747
31	0xbd89730c	-0.067113966
32	0x3e0653f4	0.13117963
33	0x3eab9d3a	0.33518392
34	0xbd2d4b7d	-0.04230832
35	0x3ddf8ef3	0.10915937
36	0x3e24a334	0.16077882
37	0x3ea1fda9	0.3163884
38	0x3d890926	0.06691198
39	0xbc969132	-0.018379781
40	0xbe359082	-0.17730907
41	0xbe5d2a0c	-0.21598071
42	0xbe0cdaa5	-0.13755281
43	0x3ea8b6d7	0.32951996
44	0x3d8ac1f9	0.067752786
45	0x3d89339c	0.06699297
46	0x3e8f1207	0.2794344
47	0xbdea2e78	-0.114346445
48	0x3b81477c	0.003945289
49	0x3eb0c6cb	0.34526667
50	0x3e560375	0.20899756
51	0x3b93fc62	0.0045161704
52	0x3e4da19f	0.20081185
53	0x3df4d942	0.11955501
54	0x3d561315	0.05226429
55	0x3e9691ee	0.2940821
56	0x3e65af75	0.22430213
57	0xbe1c8eb2	-0.15288809
58	0x3d136bcf	0.035991486
59	0xbd0baf2d	-0.034102608
60	0xbd1fff67	-0.03906193
61	0x3e12e841	0.1434641
62	0x3d232520	0.039830327
63	0x3e606252	0.21912506
64	0x3e8a4b8b	0.2701076
65	0xbd84066d	-0.06446538
66	0x3da14a69	0.07875521
67	0x3e70f0eb	0.23529403
68	0x3e92b419	0.2865303
69	0x3ef5bc8e	0.47995418
70	0x3ec2d1d4	0.3805071
71	0xbdeb2f3a	-0.11483617
72	0x3e46e9af	0.1942508
73	0xbdace10f	-0.08441364
74	0x3da5631d	0.08075545
75	0x3ed2e564	0.41190636
76	0x3c094fe2	0.008380862
77	0x3e38eaf5	0.18058379
78	0x3e55faa8	0.20896399
79	0x3d2e7536	0.04259225
80	0xbe4e3577	-0.20137583
81	0xbc4c95b2	-0.012486862
82	0xbd806615	-0.062694706
83	0x3e274044	0.16333109
84	0xbde771f1	-0.113010295
85	0x3b0fc271	0.0021935964
86	0x3e1e596d	0.154638
87	0x3da7a034	0.08184853
88	0xbde38e28	-0.111110985
89	0x3e76108d	0.24029751
90	0x3d6dc9a1	0.058053616
91	0x3e79dde5	0.24401052
92	0xbd133afc	-0.035944924
93	0x3ebd386f	0.36957118
94	0x3d0dc7a1	0.03461421
95	0x3d74cd98	0.059766382
96	0x3e6f2ba6	0.23356494
97	0x3efa8e52	0.48936707
98	0x3df237a3	0.11827018
99	0x3ccc4345	0.02493442
100	0xbde83c49	-0.113396235
101	0xbe76bf65	-0.24096449
102	0xbea3ddbb	-0.32005104
103	0xbdb92aff	-0.09041404
104	0xbe766529	-0.24062027
105	0xbe694e3c	-0.2278375
106	0xbe24697d	-0.16055866
107	0xbe12b888	-0.14328206
108	0xbcafee21	-0.021475853
109	0xbe3a06ec	-0.18166703
110	0xbe3ad1a7	-0.18244039
111	0xbe79be7f	-0.24389075
112	0xbe538e2d	-0.20659705
113	0xbdd26af5	-0.10274307
114	0xbea1a175	-0.31568494
115	0xbe534cbe	-0.20634744
116	0xbc2b9b5d	-0.010474053
117	0x3e1a632a	0.1507689
118	0xbdc0f0c8	-0.094209254
119	0x3e10684c	0.14102286
120	0xbe57ba10	-0.21067071
121	0xbea1c3b2	-0.31594616
122	0xbe70661a	-0.23476449
123	0xbeafd4b5	-0.3434197
124	0xbe1eb736	-0.15499577
125	0xbdecf8ed	-0.11570916
126	0xbcbd2713	-0.023089921
127	0xbe6f139d	-0.23347326
128	0xbcf3c49a	-0.029756833
129	0xbd1d1c56	-0.0383571
130	0xbe8d9cc8	-0.27658677
131	0xbe107c75	-0.14109977
132	0xbe843e91	-0.25828984
133	0xbe051715	-0.12997086
134	0xbe347d81	-0.17626001
135	0xbe21d4e5	-0.15803869
136	0xbe86ad0a	-0.26303893
137	0xbe376ed4	-0.17913371
138	0xbeb43614	-0.35197508
139	0xbcf64795	-0.03006343
140	0x3d8a2813	0.06745925
141	0xbdda144e	-0.10648404
142	0xbe89a36e	-0.268825
143	0xbde81871	-0.11332787
144	0xbe73b2a9	-0.23798622
145	0xbea062ca	-0.3132537
146	0xbe4cf65d	-0.20015855
147	0xbdfd5ea3	-0.12371566
148	0xbdb46fd4	-0.08810392
149	0xbe6453eb	-0.22297637

sequential/gru/while/gru_cell/MatMul_1 f4 [150, 50]
0	0x3e7472fd	0.2387199
1	0x3d8617f9	0.06547541
2	0xbd23edff	-0.040021893
3	0xbef01fca	-0.46899253
4	0xbe46f66a	-0.19429937
5	0xbf46ce27	-0.77658314
6	0xbf214e44	-0.6301005
7	0x3e567a5f	0.20945118
8	0x3ca54fea	0.020179708
9	0x3df74766	0.12074165
10	0xbce5d058	-0.028053448
11	0xbed7eee3	-0.42174444
12	0x3a8514de	0.0010153314
13	0x3d42017e	0.047364704
14	0x3e2294a7	0.15877019
15	0xbdd5c9f8	-0.10438913
16	0x3e2ff070	0.17181563
17	0xbe67d593	-0.22640066
18	0xbc1b75d0	-0.009488538
19	0xbcb9501f	-0.022621213
20	0xbe6587d9	-0.22415103
21	0xbe9fbfac	-0.31200922
22	0xbf4a8119	-0.7910324
23	0x3e9f444f	0.31106803
24	0x3d17b93f	0.0370419
25	0x3dd2841f	0.10279106
26	0xbd55a7c5	-0.05216195
27	0xbde803fb	-0.11328884
28	0xbee5c5ae	-0.4487738
29	0xbe3bd09e	-0.183413
30	0xbe43ebd5	-0.19132932
31	0xbdfbe101	-0.122987755
32	0xbe960b1f	-0.2930536
33	0x3d811c0b	0.06304177
34	0xbe97ef37	-0.29674694
35	0xbd261f78	-0.040557355
36	0xbdf8c893	-0.121476315
37	0xbd8dca5e	-0.06923364
38	0xbe297700	-0.16549301
39	0xbe41bfc9	-0.18920816
40	0xbe39a8f6	-0.1813086
41	0x3e27e5c0	0.16396236
42	0xbebcd67c	-0.3688239
43	0x3e871293	0.26381359
44	0xbe8b4ecd	-0.27208558
45	0x3dd6f8fc	0.10496709
46	0xbf051f0f	-0.52000517
47	0x3d1c49d1	0.038156334
48	0x3e8da167	0.27662203
49	0x3e525519	0.20540275
50	0x3e372dd7	0.1788858
51	0x3d4cc0b7	0.049988475
52	0x3ed8f328	0.42373013
53	0xbead8e21	-0.33897498
54	0x3d4ffc08	0.050777465
55	0xbe923f9f	-0.28564164
56	0x3d32a806	0.04361727
57	0xbc1f9507	-0.009740121
58	0x3e8aeace	0.27132267
59	0x3e1a2fcf	0.150573
60	0x3e245e89	0.16051687
61	0x3dc219a7	0.09477549
62	0x3e0e9681	0.139246
63	0x3eca62c7	0.39528486
64	0xbd84c9e4	-0.0648382
65	0x3d3a126b	0.04542772
66	0x3eafa65d	0.34306613
67	0x3db325b8	0.08747429
68	0xbe8e3735	-0.27776495
69	0x3dc9d3e0	0.09854865
70	0x3eafa6d5	0.3430697
71	0x3e38aae6	0.18033943
72	0x3e7f6d1e	0.24943969
73	0x3e8830d3	0.2659975
74	0x3b7fe5c2	0.0039046858
75	0x3bca631e	0.0061763665
76	0x3e0ed65a	0.13948956
77	0x3e3f630f	0.18690132
78	0xbd2c77c4	-0.042106405
79	0x3b74e662	0.0037368764
80	0x3ebb8c73	0.36630592
81	0x3c099b1b	0.008398796
82	0x3e279fe5	0.16369589
83	0x3d562e1f	0.05229008
84	0x3f26dd33	0.65181273
85	0x3dedacc3	0.11605217
86	0x3e29ca0d	0.16580983
87	0x3e2314ff	0.15925978
88	0x3ebd3836	0.36956948
89	0xbe0e60df	-0.13904141
90	0x3de0bc24	0.10973385
91	0xbd3a022a	-0.04541222
92	0x3eff9e8e	0.49925655
93	0xbdf13a87	-0.11778741
94	0x3d77d15f	0.060502406
95	0x3e11c7d4	0.14236385
96	0x3eef7fa2	0.46777064
97	0x3e81f92f	0.25385424
98	0x3c8fbf4f	0.017547278
99	0x3e9c4661	0.30522445
100	0x3ae01af2	0.0017097874
101	0xbdcfb887	-0.10142618
102	0xbe8a820b	-0.2705234
103	0xbf933651	-1.1500951
104	0x3dd3e868	0.10347062
105	0xbfc25ec9	-1.5185176
106	0xbf1d3ae0	-0.6141796
107	0xbe1d502c	-0.15362614
108	0xbf72d9db	-0.9486367
109	0xbfa21ee3	-1.2665676
110	0xbe81a5bf	-0.25321767
111	0x3e574729	0.21023239
112	0xbec256bd	-0.379568
113	0x3df4b902	0.1194935
114	0xbdaeacc6	-0.08529048
115	0xbdb9ccf3	-0.09072294
116	0xbfa1e3b6	-1.2647617
117	0xbf82fe5b	-1.0233873
118	0xbd53f354	-0.051745728
119	0xbe2b813f	-0.16748522
120	0x3eb35222	0.350236
121	0xbe4fb518	-0.20283926
122	0x3d53675f	0.051612254
123	0xbe983fe4	-0.29736245
124	0x3d3e6827	0.046486046
125	0x3ea27cf7	0.31735966
126	0xbf6a1c09	-0.9144903
127	0x3d38bb07	0.04510024
128	0xbec3a5a9	-0.38212326
129	0xbf828ac0	-1.0198593
130	0xbe357674	-0.17720968
131	0x3bc0ea71	0.0058873226
132	0x3e493d69	0.19652332
133	0x3e1c57dc	0.1526789
134	0xbe24cda4	-0.1609407
135	0xbf54dcb1	-0.8314925
136	0xbdbacd63	-0.09121206
137	0x3e1e001a	0.15429726
138	0xbe33aa81	-0.17545511
139	0x3b97dd74	0.0046345536
140	0xbf808455	-1.0040385
141	0xbdc3c997	-0.095599346
142	0xbfaf208b	-1.3681806
143	0x3d973aeb	0.073842846
144	0x3e59c564	0.21266705
145	0x3eeca55a	0.46219903
146	0xbe4e6181	-0.20154382
147	0xbdf64c6a	-0.120262936
148	0xbf3da68a	-0.74082243
149	0xbe88f6ca	-0.26750785
150	0xbedb9e5e	-0.42894262
151	0xbcc7b7d4	-0.024379648
152	0x3c19da36	0.009390404
153	0xbe2a039a	-0.16602936
154	0xbcd14e91	-0.025550159
155	0xbdf72f01	-0.12069512
156	0xbed8a187	-0.42310736
157	0x3bc6a983	0.006062688
158	0xbe51e0c1	-0.20495893
159	0xbbaa3750	-0.005194582
160	0x3b0c3042	0.0021391069
161	0x3d81352e	0.06308971
162	0x3baf34ad	0.0053468556
163	0xbdb98448	-0.09058434
164	0xbe37799a	-0.17917481
165	0xbe07bc7c	-0.13255495
166	0xbe396399	-0.181044
167	0xbd5e1e94	-0.05422838
168	0xbd9a0f95	-0.07522503
169	0xbe726e80	-0.23674965
170	0x3d7c5e54	0.061613396
171	0xbdedb44d	-0.11606655
172	0x3da569a2	0.080767885
173	0xbd8662c5	-0.065618075
174	0x3c6d67c0	0.014490068
175	0xbcc0db90	-0.023542196
176	0x3dd3327c	0.103123635
177	0xbe9fd000	-0.3121338
178	0x3db1c142	0.08679439
179	0xbeac2217	-0.33619758
180	0xbeb0fefa	-0.34569532
181	0xbcaedcd4	-0.021345533
182	0x3d9f3413	0.07773604
183	0xbcd37044	-0.025810368
184	0xbe14605b	-0.14489882
185	0xbeb85e75	-0.36009565
186	0xbe727134	-0.23675996
187	0xbe3343d3	-0.17506342
188	0xbe8d1766	-0.27556914
189	0xbe9ae541	-0.30253032
190	0xbeb20120	-0.34766483
191	0xbdbda815	-0.09260575
192	0xbe61bdcf	-0.22045062
193	0xbcadd396	-0.021219056
194	0xbdc421ec	-0.095767826
195	0x3e461710	0.19344735
196	0xbdee72b4	-0.11642972
197	0xbe2b43ef	-0.16725133
198	0xbeb3ff78	-0.35155845
199	0xbe29f637	-0.1659783
200	0xbc54e8ea	-0.012994984
201	0xbe27bcaf	-0.16380571
202	0x3dd0d48e	0.101967916
203	0x3d65b7e2	0.056083567
204	0xbecc2e01	-0.39878848
205	0xbd894be7	-0.0670393
206	0x3eade918	0.339669
207	0xbc4437e9	-0.011976221
208	0xbd415cc2	-0.0472076
209	0x3e99a3ed	0.30007878
210	0x3d329a9b	0.043604475
211	0xbe970cca	-0.29501945
212	0x3da058c0	0.07829428
213	0x3e9d8a01	0.3076935
214	0x3f4c8f66	0.7990631
215	0xbd826768	-0.063673794
216	0xbedbf992	-0.42963845
217	0xbdb8215f	-0.0899074
218	0x3f4be9cf	0.7965364
219	0x3f25f94d	0.6483353
220	0x3ecff181	0.4061394
221	0x3f19bc02	0.600525
222	0x3f21e835	0.63244945
223	0x3db3350a	0.08750351
224	0xbea6e0e3	-0.3259345
225	0x3ebe1e44	0.37132466
226	0xbe7301f8	-0.2373122
227	0x3f8b2aef	1.0872477
228	0xbe8a69ad	-0.2703375
229	0xbe53ad3d	-0.20671554
230	0x3f8e6f8e	1.1127794
231	0xbdc59696	-0.096478626
232	0xbe6f4ebb	-0.23369877
233	0xbe53b7e1	-0.20675613
234	0x3ec41773	0.3829914
235	0xbe7290a0	-0.23687983
236	0x3f12ee4b	0.57394856
237	0xbe8ad9d3	-0.27119312
238	0x3e6e105c	0.23248428
239	0x3eeb5651	0.45964292
240	0x3c06f1e2	0.00823638
241	0x3f32b983	0.6981432
242	0xbe655342	-0.22395042
243	0x3e8753ea	0.2643121
244	0xbe831f17	-0.25609657
245	0xbe811c6c	-0.25216997
246	0x3edbd5d3	0.42936572
247	0x3e58608d	0.21130581
248	0x3ce8d8d8	0.028423712
249	0xbde230d3	-0.11044469
250	0x3eb8bfc1	0.36083797
251	0x3e794c65	0.24345548
252	0xbe768850	-0.24075437
253	0xbe1bb7a7	-0.15206777
254	0xbf379197	-0.7170653
255	0xbe3d05c0	-0.18459225

sequential/gru/while/gru_cell/MatMul f4 [150, 1]
0	0x3f2ca483	0.67438525
1	0xbc9a790e	-0.018856551
2	0x3e947bb8	0.2900064
3	0x3e0b2b34	0.135907
4	0xbead03f8	-0.3379209
5	0x3e50b5fb	0.2038192
6	0x3d0230a8	0.031784683
7	0xbe2f110b	-0.17096345
8	0x3da6d7c5	0.081466235
9	0x3da8e73e	0.08247231
10	0x3c246325	0.0100334035
11	0xbe4c74c6	-0.1996642
12	0xbc66c624	-0.014085326
13	0x3e073ea3	0.13207488
14	0x3f38e18b	0.7221915
15	0x3df888a1	0.12135435
16	0x3de90127	0.11377173
17	0x3d88faa9	0.06688435
18	0x3e69fe55	0.22850926
19	0xbea124db	-0.3147343
20	0x3f1eec85	0.6207965
21	0x3ec6ba5c	0.38814056
22	0xbdb265d5	-0.08710829
23	0x3d71467b	0.058905106
24	0xbe5b33e3	-0.21406512
25	0x3f86c62d	1.0529228
26	0x3dde1b00	0.108449936
27	0x3e064ba0	0.13114786
28	0xbf0de44d	-0.55426484
29	0x3d5b4946	0.053536676
30	0x3e439428	0.19099486
31	0xbe0ff61e	-0.1405873
32	0xbe8faa26	-0.280595
33	0xbd385975	-0.045007188
34	0x3e8cfe49	0.27537754
35	0x3e249d2e	0.16075584
36	0x3e904e7d	0.28184882
37	0xbe152a06	-0.14566812
38	0xbdaeefd3	-0.085418366
39	0x3dc2b935	0.09507982
40	0xbe1a7dc0	-0.15087032
41	0x3ebe262e	0.37138504
42	0x3d81f2eb	0.06345161
43	0x3eeab52e	0.45841354
44	0xbe950f38	-0.29113173
45	0xbeb7baa8	-0.35884595
46	0xbe3b657e	-0.18300435
47	0xbd943d6f	-0.0723828
48	0xbd89249c	-0.06696436
49	0x3d33c96b	0.04389326
50	0xbd13c4c6	-0.03607633
51	0xbe26fb2e	-0.16306755
52	0xbd96cdb1	-0.07363451
53	0xbd06baa8	-0.032892853
54	0x3e2d1350	0.16901898
55	0xbea7f2e0	-0.32802486
56	0x3f6d53f5	0.92706233
57	0x3dbad733	0.09123077
58	0x3edac5e5	0.42729107
59	0xbe044463	-0.12916712
60	0x3e274754	0.16335803
61	0x3e34fa08	0.17673504
62	0x3e0773c3	0.13227753
63	0x3e68ff8f	0.22753738
64	0xbf9313f3	-1.1490463
65	0xbe07dcba	-0.13267794
66	0xbeae952e	-0.3409819
67	0xbea00912	-0.3125692
68	0xbeb08949	-0.3447974
69	0x3e4a9d68	0.19786608
70	0x3cb815b7	0.022471292
71	0xbf0f1976	-0.55898225
72	0x3e7a1535	0.24422152
73	0x3f2fe6b6	0.6871141
74	0xbf06a216	-0.52591074
75	0xbe8fad39	-0.28061846
76	0x3eb1b92c	0.34711587
77	0x3c58d68e	0.013234748
78	0x3e960cdd	0.2930669
79	0xbe827638	-0.2548082
80	0x3e9c9097	0.30579063
81	0xbe764bf2	-0.24052408
82	0x3e9daf58	0.3079784
83	0xbe4a15b4	-0.19734842
84	0x3e49210e	0.19641516
85	0xbe3bd3d7	-0.18342529
86	0xbd05e9b8	-0.032693595
87	0xbf032ab1	-0.51237017
88	0x3eae6d0a	0.34067565
89	0x3e18a84f	0.14907955
90	0xbf01cba0	-0.5070133
91	0xbef28d8c	-0.47373617
92	0xbe04bb8d	-0.1296217
93	0xbe560002	-0.2089844
94	0xbe80c394	-0.25149214
95	0xbed118c9	-0.40839222
96	0x3ef97935	0.48725286
97	0x3d71130a	0.058856048
98	0xbe6171a4	-0.22016007
99	0x3eb5abd6	0.35482663
100	0x3e576a30	0.21036601
101	0xbd3a4c5a	-0.04548297
102	0xbe8d36b8	-0.2758081
103	0x3ee831f4	0.4535061
104	0xbe4b0c9b	-0.19829027
105	0x3eab3e22	0.3344584
106	0x3e36f8b2	0.17868307
107	0xba4fd286	-0.0007927794
108	0x3e2c8445	0.16847332
109	0x3e180f51	0.14849593
110	0xba9367af	-0.001124611
111	0xbe3b0729	-0.1826445
112	0xbdeea6d4	-0.11652914
113	0x3e35f186	0.17767915
114	0xbd94ef2d	-0.07272182
115	0x3de7312b	0.11288675
116	0x3ef834e8	0.48477864
117	0x3ec994cf	0.39371344
118	0xbd29fe95	-0.041502554
119	0x3d4253e6	0.047443293
120	0xbe8d2c2f	-0.27572772
121	0xbdd1144b	-0.10208949
122	0xbe6b6229	-0.22986664
123	0x3d4347de	0.04767596
124	0xbe76287c	-0.24038881
125	0x3d90746d	0.070534565
126	0x3e7f9782	0.2496014
127	0xbe8c10a9	-0.2735646
128	0x3dfdbf09	0.12389953
129	0x3e79baec	0.24387711
130	0xbe61e509	-0.22060026
131	0xbc1f95eb	-0.009740333
132	0xbe431f17	-0.19054829
133	0x3d0c139e	0.034198396
134	0xbe16cd5d	-0.14726777
135	0x3d49093b	0.04908107
136	0xbe318d18	-0.17338979
137	0xbe8efa87	-0.27925512
138	0xbe891686	-0.26774997
139	0x3ca045af	0.019564478
140	0x3e27c8f9	0.16385259
141	0x3d186343	0.03720404
142	0x3e956e4d	0.29185715
143	0x3d2efc1b	0.042720895
144	0xbea27f26	-0.31737632
145	0xbda0089c	-0.07814142
146	0xbb52036c	-0.0032045497
147	0xbe5071bd	-0.20355888
148	0x3da0d835	0.07853738
149	0x3d9f6b60	0.07784152
